model/mode.pth (torch, 16781 bytes, 4 tensors)

linear1.weight f4 [256, 11]
00000000: 42ef 173f a105 4bbf 4778 ce3e 69a2 623d
00000010: a1a8 82bc f8bf a9bd 7829 ab3e c1c0 1d3e
00000020: 7462 b0bd 449e 693e 0d93 25be 2f34 f03d
00000030: a664 b53d 35d6 bd3c 6ae4 453d 8e40 0dbd
00000040: b4fc 993c daaa 58bd 6825 7f3e c5f9 693e
00000050: f822 4f3e 80aa 643e a51c 0f3f 0a28 d4be
00000060: b513 82bd ae7e c53e ea1c 9bbd c11d c23d
00000070: 8a90 a8be 92b1 c3be 95e6 503e 4a4a c13c
00000080: ad88 e03e 1e59 9a3c b2a8 adbd d439 d7be
00000090: 92b0 94be d25c ec3e 79de a0be 016d da3d
000000a0: 362c b93c ded0 b5be 7c0a c23e 90a2 c3be
000000b0: 1b23 893e 8411 983e 105a 563e 4fab bebd
000000c0: 0a1a e7bb dfb0 c0bd f937 c4bd 6374 a43e
000000d0: b455 563e 82f8 a43e 789e 5d3e 4b63 a43e
000000e0: 268d 08bf 2a1c 153d 3b9c 17bd 3534 8cbe
000000f0: ac67 8a3c 71d2 5ebd c18e 6bbd a6da a83d
00000100: 0afd 543e e3c2 a03d b08c af3c c93e 003d
00000110: 8548 2ebe aefa 53be 70c0 f13c df4f 523d
00000120: 3c9e 59be c8cf 8bbe 1cf1 bdbd 2eca b3bd
00000130: 68dd 8cbe 9cb5 073e a7b5 17be 1fe3 92bd
00000140: 1fd3 0b3e 7402 04bf 0488 a03e 5632 cbbe
00000150: 511b e7bd daa8 ddbe 5e8f b3be 8a14 9e3e
00000160: 0ac2 ee3e 425b 853d 0988 983d f83b 973e
00000170: ac1a b7be 7433 98be bc5b 333e a4b6 6dbe
00000180: 3848 e33e f35f c23e c711 b1bd 7709 3ebe
00000190: 112d 923e 1216 bcbd 987c 08be 3548 4bbd
000001a0: b625 a23b 3eef b5be 8ff9 11be 7173 d0be
000001b0: 854f 3dbe 46d6 2d3e cdb4 0d3f 13d4 e13c
000001c0: 4aa2 993d 62a9 a4bd c2d8 73be 1849 953e
000001d0: b45a 8cbe 9e93 debe 53f9 ad3e c688 93be
000001e0: 56cf bebe 2d44 26be 3787 72bd f329 343f
000001f0: 5f8a 9a3e df28 a43d fdc5 fa3b ad3a b7be
00000200: b337 00bf 6d1c abbe 2077 16be 0727 043e
00000210: 7e1c 42bc 7627 bdbe 34d7 353f d357 4fbd
00000220: 3bdd 553d 1225 713e 137d 0d3d 6ea1 68be
00000230: 462b 4d3d daa1 f23d 5907 b83d f0bf a13e
00000240: 1384 be3c fe2f 063d 93e0 a0be e743 c9bd
00000250: bcc7 0a3f 6a0a cd3e 4f2f ac3e 741e d13d
00000260: ac9a 14bf 396d dfbe 834f 2c3d 1431 b6be
00000270: 6118 3d3f 6796 74be c252 4b3d a761 f3bc
00000280: d45f 96be b289 113d 60a7 14bd 694e ab3d
00000290: 7f0d b53e f586 b63e e8dd 9c3e 991e b03d
000002a0: 4ce2 d73c c391 6bbe c766 8bb9 5407 96bd
000002b0: 319f 013e 4207 3d3d 934e 393e 5206 583d
000002c0: e6ae d2bd 4006 76bd ee26 643d 7cbb 86be
000002d0: 10e3 82be 398c ea3c bd84 003d 004c 2dbd
000002e0: ad81 17be dc50 b83d 0026 0fbc 38ce 9fbc
000002f0: 1183 ebbd ea7d 88be fb48 033f f9a4 f6be
00000300: 44ee 21be 8a21 d5be 337c cd3e b48a 13bf
00000310: 8c1e 06bf 9eca 1bbf e0da 46bc 0052 85be
00000320: e399 19be 6c22 9fbd 5176 23be 4ab2 37be
00000330: 2d9d 82be 66b3 98bd fc04 42be e2d4 edbd
00000340: 5dcb 31be 8612 98be 7a8b 5bbe 6285 00be
00000350: 4590 b3be 6a5c a83e 187c 3eba 41bc a9bc
00000360: 925a b3be 433a 2a3e caf4 adbe 96ca 5b3e
00000370: a568 a33e 3c99 0cbf 4b5d 40be 750a dcbe
00000380: 83e5 c53e c668 113d 1101 34be 32e9 a1be
00000390: f6a9 10bf 8bdb 7abe 5122 38bd e7cf 693e
000003a0: 5470 b3be b64a eb3e 3deb 073e 2559 1dbd
000003b0: 35b9 c7be d642 413e 07ed 18be f09e 7cbe
000003c0: 6d3e 933d 27a1 82be 0c96 b3bc 6812 f43d
000003d0: 89a7 b3be 6cee a63c 660d 42be c00e 0ebe
000003e0: eb41 6ebe b646 99bd 0793 e83d 47a5 32be
000003f0: 5091 0cbd dc5a 6b3e 095a ea3e 7b99 1bbf
0.59349453 -0.79305464 0.4032614 0.055330668 -0.01594955 -0.08288568 0.33430076 0.15405561
-0.086125284 0.2281428 -0.16169377 0.11728703 0.08857088 0.023173431 0.048313536 -0.034485392
0.018797256 -0.05289731 0.24916613 0.22849186 0.20228183 0.22330666 0.55903083 -0.41436797
-0.06351415 0.3857321 -0.07573874 0.09478331 -0.32922775 -0.38221413 0.2040046 0.023594994
0.43854275 0.018841323 -0.08479442 -0.42036307 -0.29040962 0.46164566 -0.31419733 0.10665322
0.02260409 -0.35510916 0.37898624 -0.38209963 0.26784596 0.29700863 0.20932794 -0.09310018
-0.0070526646 -0.094087355 -0.095809884 0.32120046 0.2093113 0.32220846 0.21642482 0.32107005
-0.53340375 0.036403812 -0.037014227 -0.2738358 0.016895138 -0.05439991 -0.057509188 0.08244829
0.20799652 0.07849672 0.02142939 0.031309877 -0.17019852 -0.20701095 0.029510707 0.051345702
-0.21251768 -0.27306962 -0.092745036 -0.08778797 -0.2751267 0.13252872 -0.14815389 -0.07172226
0.13654755 -0.51566243 0.31353772 -0.3968684 -0.11284507 -0.43292886 -0.35070318 0.30875045
0.46632415 0.06511547 0.07447822 0.2953794 -0.35762537 -0.29726756 0.17515463 -0.23214203
0.44391036 0.37963828 -0.08645969 -0.18558298 0.28550008 -0.09183897 -0.13328779 -0.04962941
0.004948343 -0.3553409 -0.14255355 -0.40713075 -0.18487366 0.1697627 0.55354005 0.027566945
0.07501657 -0.0804012 -0.23813155 0.2915733 -0.2741295 -0.43471998 0.33979282 -0.28815287
-0.3726756 -0.16236944 -0.059210982 0.7037651 0.30183694 0.08015608 0.0076529966 -0.35786954
-0.5008499 -0.33420125 -0.1469388 0.12905513 -0.011847613 -0.3694417 0.710315 -0.050620865
0.052212935 0.23549297 0.03454311 -0.2271783 0.050090097 0.11847277 0.089857765 0.3159175
0.023256337 0.032760613 -0.31421337 -0.098274045 0.5421102 0.40047008 0.33629844 0.102108866
-0.5804851 -0.43638018 0.042068016 -0.3558432 0.73865324 -0.23885499 0.04963947 -0.02970965
-0.29369986 0.035531707 -0.036292434 0.08364565 0.3536186 0.3564984 0.3063805 0.08599586
0.026353024 -0.23004822 -0.0002658872 -0.073256165 0.12658383 0.0461495 0.1809638 0.052740403
-0.102872655 -0.060064554 0.05570119 -0.26314914 -0.2556386 0.028631316 0.03137659 -0.042308807
-0.14795561 0.08999798 -0.008737087 -0.019507512 -0.11499608 -0.26658565 0.51283234 -0.4817274
-0.15813547 -0.4162715 0.4013382 -0.5763352 -0.5239036 -0.60856044 -0.012137145 -0.26039124
-0.1500011 -0.07770237 -0.15963103 -0.17939106 -0.2551054 -0.074560925 -0.18947214 -0.1161287
-0.17362733 -0.29701632 -0.21439925 -0.12550882 -0.35071006 0.32883006 -0.0007266416 -0.02071965
-0.35030037 0.16623788 -0.33975822 0.21463999 0.31915775 -0.5492132 -0.18785588 -0.42976728
0.38651666 0.03550031 -0.17578532 -0.31623226 -0.5650934 -0.24497811 -0.0449546 0.22833215
-0.35046637 0.45955437 0.1327333 -0.038415093 -0.3900849 0.18873152 -0.14934169 -0.24670005
0.07189641 -0.25513574 -0.021922134 0.11917573 -0.35088757 0.02037736 -0.18950424 -0.13872814
-0.23267333 -0.0748419 0.11356168 -0.17445861 -0.03431827 0.22983879 0.45771816 -0.6078107

linear1.bias f4 [256]
00000000: 6e99 bebe da66 b3be 774f 09be ade6 17be
00000010: 3e50 88be ed87 aabe 43de e2bd 17ea 44bd
00000020: 8646 e2bd f3f5 f2bd d39b 54bd d82b 103e
00000030: 455c 87bd c9be b03b 53c6 07be 40a1 c2be
00000040: 0b28 94be 6358 c93c 1837 f4bd 77b3 cf3d
00000050: 89a9 1b3e 800d 12bd b91e 88be 99f3 7e3e
00000060: 9023 8c3d 2ef8 903d c964 3ebe 94ba 19be
00000070: 2802 b6be 8bb9 8bbe 368d 61bd cfa8 603e
00000080: e6e7 603f 1015 6bbe 747e 313d d4f6 2bbd
00000090: 64a8 8dbe ba99 6f3e 9c33 efbd 87ff 8fbe
000000a0: 1871 05be 79be 3d3e 737b 55be b35b 8e3e
000000b0: 690d 9bbe a89a 053e a1a8 a9bd 8eef 3abe
000000c0: 6904 1fbe d6fc 71be d2cd 253f d646 b83c
000000d0: e298 d63d 9155 31be eba0 69be 6893 7a3e
000000e0: 249e 0c3e 6fd4 2b3e 8edf dc3d 5fe6 7abe
000000f0: 1f6f 1a3e c693 043e 0680 20be c96e 923d
00000100: 1a00 c8be c98d a7bd 1430 8bbe abb2 4bbd
00000110: 07cf 8fbd 3c3c 54be 012e 77be 8695 373d
00000120: 2f54 c53e 1f77 ce3d 5706 2d40 ff44 29be
00000130: bb6f d73d 0967 69be ce86 a5be 1037 7abe
00000140: 3529 303e b957 afbd 8be2 6a3e d33d b5be
00000150: 5fed 053e 176b 76be 8659 d6bd 9859 21be
00000160: 3822 f53e d19f 8c3d 94b3 ebbd 86f6 233d
00000170: 047e 55be 8d7b 563e 0a01 703d e2b7 c1be
00000180: a68e d53c 9736 c93d 3535 6bbe e65c 8dbd
00000190: 0013 b93e 85df d9be fd18 c4be d38b c93d
000001a0: bca7 2cbe 0690 c13b df1f a83e 8e12 41be
000001b0: e333 d3be 0497 b7be 006d 203e 292d b9be
000001c0: 4e31 243c 3f78 8f3e 8891 9f3b fdd5 ed3d
000001d0: 27f8 94bd 26a4 f53e 8d3f 35bb bf20 83be
000001e0: b3bf 453e 322b 42bd 57a5 0cbe 67a7 acbd
000001f0: 3a09 833e faa5 85be e56e 923d 1a9d 30bd
00000200: e305 57be 17e2 91bd cc9b 46be 6db5 5bbe
00000210: 5c6a c13e 713d 413e 8876 fbbd a42d 87be
00000220: 6eae 83be c7b2 86be 3776 c2bd 0896 8fbc
00000230: ad27 0e3f 0b15 b4be 1619 3f3e 392e 52be
00000240: 6294 5dbe 3d9f 243d ef39 cc3d 5ec6 dabe
00000250: 74a2 67be 7da7 a3be 8437 99be 0b2a 87be
00000260: 959b afbc 3d82 20be aa3b 48be 8133 fcbd
00000270: f8f6 e8bd dc2a 213f cbc5 79be c32e b43d
00000280: abb8 d33c fbc3 5bbd 492e 75be 8fd8 873d
00000290: 3431 4ebe 9108 b9bd b428 f9bd b6d2 1f3e
000002a0: f59e f6bc 3f2d 2cbe 6fde 72bd e3e7 d8bd
000002b0: 3a4f 23be 8bdd be3e d0f9 98be 3de4 24bc
000002c0: e48e bd3d faef 143c 40d7 f4bc 4626 30be
000002d0: f493 23bd bd87 6fbe ca88 4abe c057 24bd
000002e0: 6073 cdbb 9eb9 353c e754 3dbe 592c 97bd
000002f0: a03a 68be 1f03 a93c 51c2 efbd 1400 063f
00000300: 3081 febd 538e bf3c 6e02 d23c 8447 903e
00000310: e183 9d3d 4690 703e 64e1 f1bd 354e 05bd
00000320: 4ef4 d7bd 5b1e 67be afff bfbe b18f bdbe
00000330: f9cf 3dbe 9748 44bd 149d ccbd 9dac 93be
00000340: 6ce6 bb3d 5106 883d 34ff 9fbd 0c41 3b3e
00000350: accc 82be 46a3 a2be a8fa f53d 4f95 ebbd
00000360: ffa0 8d3e f103 0c3e ca00 86ba 4bee 0bbe
00000370: c395 97bc ba5c 653c 71f2 0c3f b4ea 1c3e
00000380: ba44 b53d 29a4 89be 43ef 0fbe 3554 25be
00000390: 7315 1dbe 1173 53be 8c95 f83c dd26 41be
000003a0: f013 85be f184 e03e 729c 4abe 644c 583e
000003b0: 06c8 94be 17aa 813c af3e a3bd fc27 86be
000003c0: 46f3 83be ac9e a13e f616 81be 9df8 05be
000003d0: d9a4 12be 7b2b b5be ac98 ba3e 6c61 57be
000003e0: 36e3 8bbe cceb 3cbe da94 ec3d 16f8 63be
000003f0: 05a2 96be dcea 62be b030 eb3d 8aab 75be
-0.37226433 -0.35039407 -0.1340922 -0.1483409 -0.2662372 -0.33306828 -0.11077549 -0.048074808
-0.110486075 -0.11863317 -0.051906418 0.14079225 -0.06609396 0.005393837 -0.13259248 -0.3801365
-0.289368 0.024578279 -0.11924571 0.10141652 0.15201391 -0.035657406 -0.2658594 0.24897613
0.068427205 0.070785865 -0.18593134 -0.1501258 -0.3554852 -0.27289996 -0.05506631 0.21939395
0.8785385 -0.22957253 0.043333486 -0.04198344 -0.27667534 0.23398486 -0.116797656 -0.2812464
-0.13031423 0.18529691 -0.20847873 0.27804336 -0.3028367 0.13047278 -0.082841165 -0.18255445
-0.15529026 -0.23631606 0.6476718 0.022494715 0.10478379 -0.17317797 -0.22815292 0.24470294
0.13732201 0.16780256 0.10784827 -0.24501942 0.15081452 0.12946996 -0.15673837 0.07150037
-0.39062577 -0.0818134 -0.27185118 -0.049730938 -0.07021909 -0.20726103 -0.24138643 0.04482033
0.3854079 0.10081314 2.703512 -0.16530226 0.10519358 -0.22793211 -0.3232941 -0.24435067
0.17203219 -0.08561654 0.22937982 -0.3539873 0.13078831 -0.24064289 -0.10466294 -0.15756834
0.4787767 0.0686642 -0.11508861 0.040030025 -0.20848852 0.20945568 0.05859474 -0.37835604
0.026068997 0.09824865 -0.22969516 -0.069024846 0.36147308 -0.42553344 -0.38300315 0.098411225
-0.1686086 0.0059070615 0.32836816 -0.18854734 -0.41250524 -0.35857403 0.1566658 -0.36167267
0.010021521 0.28021428 0.0048696436 0.11613081 -0.07273894 0.47976798 -0.0027656287 -0.2561092
0.19311409 -0.047404476 -0.13734947 -0.08430367 0.25592977 -0.26103193 0.07150058 -0.043118574
-0.2099834 -0.07123201 -0.1939537 -0.21455927 0.37776458 0.18871094 -0.122784674 -0.2640201
-0.25719017 -0.2630827 -0.09495204 -0.017527595 0.5552929 -0.35172305 0.18661913 -0.20525445
-0.21638635 0.040190924 0.099719875 -0.42729467 -0.22620565 -0.3196372 -0.29925168 -0.26399264
-0.021436492 -0.15674682 -0.1955401 -0.12314511 -0.113752306 0.62956023 -0.24391858 0.087979816
0.025844892 -0.0536537 -0.23943438 0.06633102 -0.20135957 -0.09034837 -0.12165967 0.15607724
-0.030105093 -0.16814135 -0.05929416 -0.10591104 -0.15948191 0.372784 -0.29878092 -0.010064182
0.0925577 0.009090418 -0.029887795 -0.172021 -0.03993602 -0.23391624 -0.19778743 -0.040122747
-0.0062698573 0.011091618 -0.18489419 -0.073815055 -0.22678614 0.020631371 -0.11706985 0.5234387
-0.12426984 0.023383295 0.025635924 0.28179562 0.076911695 0.23492536 -0.11810568 -0.032545287
-0.10544644 -0.22570173 -0.3749976 -0.3702369 -0.18536367 -0.04792079 -0.09990898 -0.2884263
0.09174809 0.0664183 -0.07812348 0.18286532 -0.25546777 -0.31765193 0.120106995 -0.11503088
0.27661893 0.13673379 -0.0010223624 -0.1366512 -0.01850403 0.0139991585 0.55057436 0.15323907
0.08850999 -0.26883057 -0.14056115 -0.16145404 -0.15340213 -0.20649363 0.030344747 -0.18862481
-0.25991774 0.43851426 -0.19786242 0.2112289 -0.29058856 0.015828175 -0.0797094 -0.2620238
-0.2577154 0.3156637 -0.2521283 -0.1308312 -0.14320697 -0.35384735 0.36444604 -0.21033257
-0.27321786 -0.18449324 0.11551829 -0.22262606 -0.29420486 -0.22159904 0.11483896 -0.23991218

linear2.weight f4 [3, 256]
00000000: 88e6 e8bd aa4d 38bd 3fe9 2ebf 618c 8fbe
00000010: 203a 0bbe ef06 27bd b905 053d 8ee8 96be
00000020: 44f1 febe 5f80 13bc c6b3 a8be f955 9ebe
00000030: 299e 163d 7e4c b2be 745b 24be 180f 68bd
00000040: 7cab afbc 5741 053f 3e02 17bd b44c 813e
00000050: 55e2 d4be afd9 5ebd 9d8b 393e 1488 803d
00000060: 766b 1c3e 04b8 94be 0d6a 99bd c09b 543b
00000070: a127 5f3d 5105 24be b13c 07bd b3de 603e
00000080: 7493 fb3e ee34 01bf fbde c8bd 9932 b13e
00000090: f60f 2dbd d643 ce3e c2cf 953e 9e47 5d3d
000000a0: c709 05bf 61be a83e 2ad1 5fbd 75a7 813e
000000b0: 4863 4ebe d564 af3e 573e 86be f868 6dbe
000000c0: 9d8c 7ebe e4ee d3bd e892 ec3e 671e 64be
000000d0: b709 403e 4586 c0be 260a 46bc 770d b13e
000000e0: 5f47 383e 5261 e63e 60e7 963e ebb6 75be
000000f0: 78c4 b83e f9a9 de3e 2036 35bd c3ca ec3e
00000100: 99e0 17bd 7d8d 093c 5aad d3bd e1da 15bf
00000110: 0ae3 2f3e d8bb bbbd 8a7f 873d c038 cf3d
00000120: bb0d a63e 7e11 a9be b1fb c73e 274b 103d
00000130: 2f10 3abd 2ce6 76be 7ed8 81be 96bf 0ebd
00000140: 70ab c1be 4ada 5a3e 9e71 3b3e 7eec 9fbd
00000150: bd3e cb3e 3085 013d fc91 5d3c bc27 a1bc
00000160: 3a42 eb3e b3f9 e4bc 3665 d5be c43a 99be
00000170: e8ed e93c 4ff1 9c3e 3181 31be 726b 34be
00000180: ba8c 06bf 6977 d3be bdfa bf3b 5c80 233e
00000190: 095a a63e 5a75 e0bd 1093 3abd 2a50 003f
000001a0: 98b1 e13c f615 e2bd cc5c d83e 0c0c c0bd
000001b0: 0bd6 07be ae9c 19bd 1b59 00bf e06d a9be
000001c0: 4206 c03c 1e38 9b3e 4094 edbe fb70 e33e
000001d0: 78f7 a6bb f31b fb3e 8f01 9bbd fd27 94bd
000001e0: f80f e03e 99b0 e1bd ad5d a7bd 984a 323e
000001f0: 0317 953e 6866 59be d927 ab3d 20f9 f13c
00000200: 90c8 95be 0130 67bd c8fe e4be 9340 22be
00000210: e985 493e cea8 053e d413 4a3e 22fb 2cbf
00000220: 75a5 293d d733 ddbd 24f6 5c3e de3c 1d3e
00000230: c5ac 663e 996d 19bd 4eca 6c3d af4e 13bd
00000240: 1ad1 4abd 880a 04bf 1cc5 c63e e695 93be
00000250: 70fb b13c 5db5 943d 974b 83be 387b 1ebf
00000260: 6208 0abe 047d 303e d506 b03b b7e8 bf3e
00000270: da86 8cbe 53b0 b73e 665a 27bd d106 803c
00000280: e6a9 04be 6279 4abe 4d57 2dbe a0bc cc3d
00000290: a2a7 d9be e4ec 27bc acf4 95be ade6 123e
000002a0: e998 e13e 5822 1dbc 64d7 0fbe 7b92 8c3e
000002b0: eff2 033e 1ea9 233e d565 c2bd 3094 d13e
000002c0: b5fb 41bd 2d7a ea3e f701 883c 047b 28bd
000002d0: cd65 8cbe 9e77 36bd 33b4 3cbe 16bc 5e3e
000002e0: c60b 943e 98d8 603c 24c0 98be 434e 1e3c
000002f0: bde6 833c f8fe bbbc f3ce cb3e d902 443e
00000300: f1c2 b73e 89bb 37be 99fd d73e 4355 9c3d
00000310: 6640 7c3e 7441 0c3d eca9 fcbe 874a 1bbd
00000320: c2e7 60bd 54c0 1abe 9039 9c3c 27a8 63bd
00000330: 9742 53be 27a8 293d 4f6f 453e 5543 03be
00000340: 3ffb 0f3d 4768 62be cc7b b13e 3623 c43e
00000350: 4954 16be b83d e03c f6f5 cc3e 6451 0ebf
00000360: 2c69 053f 2c9f 573e 168e 80bd 4487 98be
00000370: ad1c 423e c41a bdbd 152d 933e 8c45 9e3e
00000380: c55d 3b3e 6e57 98be a9ae 543e f040 0abc
00000390: ff39 c2be ca71 05bd 912b 7d3e 9cbe c3be
000003a0: 3646 3ebe fdb6 c43e 1df0 c7bc b5b3 663e
000003b0: db4b 95bd 384a 5a3e 6728 e4be e33e c4bd
000003c0: 9367 4abe 829c be3e 4b4b a4bd 228a 7abe
000003d0: 204f 16bc 8908 1cbe 80f7 743e 012f 41bf
000003e0: 3ef3 b8be 5ed8 6a3c ba65 433d fd14 28bf
000003f0: 2066 7a3d 9fbd a3be 1e8a 163f d242 02bd
-0.11372095 -0.04499594 -0.68324655 -0.28036788 -0.13596392 -0.040778097 0.03247616 -0.294743
-0.49793446 -0.009002774 -0.32949656 -0.30924967 0.036771927 -0.34823984 -0.16050512 -0.05665502
-0.021444075 0.52052826 -0.036867373 0.25253832 -0.41578928 -0.054406818 0.18119664 0.06275955
0.15275368 -0.29046643 -0.07490931 0.0032441467 0.054481152 -0.16017653 -0.033016864 0.21959953
0.49135935 -0.5047139 -0.09808155 0.34608915 -0.04225155 0.4028613 0.2926007 0.054023378
-0.51968044 0.32957748 -0.054642834 0.25323072 -0.2015506 0.34256616 -0.26219437 -0.23184574
-0.24858327 -0.10348299 0.4620583 -0.22277223 0.18753706 -0.3760244 -0.0120873805 0.34580585
0.17995976 0.44996125 0.294734 -0.23995559 0.36087394 0.43489054 -0.04424107 0.46248445
-0.037079427 0.00839555 -0.103357986 -0.5853711 0.17176452 -0.09166688 0.06616123 0.10118246
0.3243235 -0.33021158 0.39059213 0.03522792 -0.04542559 -0.24111241 -0.25360483 -0.03485068
-0.3782611 0.21372333 0.1830506 -0.07808779 0.39696303 0.031621158 0.013523575 -0.019672267
0.45948964 -0.027951097 -0.4167878 -0.29927647 0.028555825 0.30652854 -0.17334439 -0.17619112
-0.5255848 -0.4130204 0.0058587478 0.15966934 0.32490566 -0.10959883 -0.045550406 0.5012232
0.027550504 -0.11039345 0.42258298 -0.09377298 -0.13265245 -0.037502937 -0.50135964 -0.3309164
0.023440484 0.30316252 -0.46402168 0.44422135 -0.0050954185 0.4904476 -0.07568657 -0.0723419
0.43762183 -0.110200115 -0.08172164 0.17411268 0.2911912 -0.21230471 0.0835721 0.029537737
-0.2925458 -0.056442264 -0.44725633 -0.15844946 0.19679989 0.13052675 0.19734126 -0.675707
0.041417558 -0.10800903 0.2157827 0.1535525 0.22526844 -0.037458036 0.05781012 -0.03596371
-0.04951582 -0.5157857 0.38822258 -0.288253 0.02172634 0.07261155 -0.25643608 -0.61906767
-0.1347976 0.1723519 0.005371908 0.37482235 -0.27446634 0.35876712 -0.040857695 0.01562825
-0.12955436 -0.19772866 -0.16927834 0.09996915 -0.42510706 -0.01024935 -0.29288232 0.14345808
0.44061974 -0.009590708 -0.14047009 0.27455506 0.1288564 0.15982482 -0.09492079 0.4093337
-0.047359187 0.45796338 0.0166025 -0.04113294 -0.27421418 -0.04454767 -0.18428116 0.21751437
0.28915232 0.013723515 -0.29834092 0.009662214 0.016101236 -0.022948727 0.39806327 0.19141711
0.35890916 -0.17942633 0.42185667 0.0763345 0.24633941 0.03424211 -0.4934839 -0.03791287
-0.05490852 -0.1511243 0.019070417 -0.055580284 -0.20630871 0.04142013 0.19280742 -0.12818654
0.035151716 -0.22110091 0.34664762 0.38308114 -0.1468059 0.02737318 0.40031403 -0.5559294
0.52113605 0.21056813 -0.06277101 -0.297907 0.18956251 -0.09233621 0.28745332 0.30912435
0.18297489 -0.29754204 0.20769753 -0.008438334 -0.37934873 -0.03257922 0.2472365 -0.3823136
-0.18581471 0.3842086 -0.024406487 0.2252949 -0.07289859 0.21317375 -0.44562075 -0.09582307
-0.19766073 0.3722878 -0.080221735 -0.24466756 -0.009174138 -0.15237631 0.23922539 -0.7546235
-0.3612308 0.0143338125 0.047704436 -0.65657026 0.06113255 -0.31980607 0.588045 -0.031802006

linear2.bias f4 [3]
00000000: 2686 aa3e 1edf f03d 60f5 2a3e
0.33305472 0.11761306 0.16695166
