model/mode.pth (torch, 16781 bytes, 4 tensors)

linear1.weight f4 [256, 11]
0.028466124 0.24156256 -0.057702795 -0.23134291 0.11735216 0.1286722 -0.17084166 0.25079376
0.12692456 -0.08213535 -0.0038565712 -0.3079735 0.080788895 0.08130449 0.14776346 -0.121210515
0.075181775 0.123293966 -0.20423885 0.0049012615 -0.19983368 -0.25426567 0.18158622 0.31835482
-0.35720938 -0.3200471 -0.28724334 0.22341385 -0.2904143 0.21450637 0.31139362 -0.12399236
0.13525853 -0.3214003 0.35533822 0.42270067 -0.21529348 -0.20213553 -0.009056871 -0.056620575
0.19373137 -0.031583916 0.16157936 0.33037695 -0.028506543 0.105344705 0.21209626 0.4190547
0.10981503 -0.10344086 -0.19870687 -0.43369856 -0.25331366 -0.0074213943 0.115044996 -0.14962061
0.4123737 -0.0107227 0.1919772 -0.13049895 -0.25454116 -0.27398068 0.3645771 -0.112439014
0.057862453 0.2935392 -0.09376863 0.27422202 0.18147704 0.22346903 -0.07688823 -0.13659649
0.004456421 0.14800352 0.0029978286 0.17236416 -0.30459645 0.012404811 -0.14067036 -0.14474119
-0.35555443 0.036436606 -0.29096702 0.11094116 -0.26547834 0.22476614 -0.02736355 0.24204463
-0.43267405 0.08999 -0.42303783 -0.40029442 -0.053245228 0.25021026 0.19987592 0.027799511
-0.06103721 0.18256967 0.052713122 0.23422776 0.33846802 -0.13934655 0.114357844 0.34633726
-0.082846604 0.19788598 -0.16413854 -0.25671896 0.14511333 -0.17020953 -0.045562238 -0.17266653
0.5512841 0.1824065 -0.028048124 0.04509217 0.10857047 0.041157696 -0.06782458 -0.025810026
-0.10074502 0.4496751 -0.13978566 -0.084167965 -0.18110561 -0.1302938 -0.14241199 0.07029438
0.21832557 -0.12093342 0.14518891 -0.04041743 -0.17744637 0.1151696 -0.1885844 0.040739328
0.31375915 -0.08813988 -0.044315815 0.09605084 -0.14519554 0.18487087 -0.26694638 -0.08652997
-0.44035986 0.55336267 0.16661032 -0.04769222 0.21499932 -0.014703908 0.32563972 0.23568511
0.06482685 -0.12945175 -0.28723314 -0.207048 0.02158103 0.08459922 -0.25152385 0.040700287
-0.17149101 -0.113326855 0.0075919614 -0.08389887 0.1140648 -0.11016467 0.33238807 -0.05823712
-0.17622289 0.1896163 -0.16751039 0.2000505 -0.11323626 0.29667225 -0.38669333 0.21802177
0.18462268 -0.39311156 0.5038623 0.16093019 0.21125004 -0.24540356 0.14713387 0.178929
-0.40599036 -0.030102016 0.35557064 0.5329481 -0.42638502 0.3683457 0.04133824 -0.1816175
-0.13418196 0.11325462 0.052239023 0.20258431 -0.119852215 0.12815204 -0.2926585 0.2229756
-0.021518964 0.12694056 0.097572066 -0.22336212 0.13259034 0.16427429 -0.06547347 0.013351124
0.120880604 0.082254186 0.20406243 -0.12798078 -0.12557545 0.16468035 -0.08085587 -0.40113345
0.23846419 -0.0112654185 -0.15730903 0.26033697 -0.21466467 0.4531144 -0.38605022 0.0642491
0.08364092 0.097769305 -0.013349216 0.0862577 0.2049701 -0.061263923 0.12796316 -0.11544269
-0.066640854 -0.0763067 -0.40105844 0.036390822 -0.2350853 0.124273665 -0.16511972 0.11752838
-0.06500889 -0.21564367 0.0139291035 -0.017728984 -0.33550605 0.25610963 -0.25467923 -0.29408956
0.19405141 -0.36962205 0.13937734 -0.093185894 -0.18774305 -0.368694 0.2835837 0.3071698
00000000: ca31 e93c 2d5c 773e c459 6cbd 28e5 6cbe
00000010: 5456 f03d a5c2 033e 1ef1 2ebe 0a68 803e
00000020: 83f8 013e 9436 a8bd 87be 7cbb b4ae 9dbe
00000030: a674 a53d f882 a63d 4e4f 173e 383d f8bd
00000040: e7f8 993d 8c81 fc3d fd23 51be c39a a03b
00000050: 33a1 4cbe 1c2f 82be bdf1 393e 67ff a23e
00000060: 26e4 b6be 37dd a3be 8f11 93be 9ac6 643e
00000070: 2fb1 94be 8fa7 5b3e fc6e 9f3e b5ef fdbd
00000080: 3681 0a3e 958e a4be e4ee b53e 396c d83e
00000090: e575 5cbe 9efc 4ebe 4563 14bc faea 67bd
000000a0: 8461 463e 235e 01bd 0f75 253e 2b27 a93e
000000b0: 8e86 e9bc f7be d73d c32f 593e 568e d63e
000000c0: b4e6 e03d cdd8 d3bd d079 4bbe bd0d debe
000000d0: 54b2 81be 2b2f f3bb b69c eb3d 2536 19be
000000e0: a522 d33e 43ae 2fbc ac95 443e 84a1 05be
000000f0: 3853 82be 3247 8cbe daa9 ba3e 6d46 e6bd
00000100: 2e01 6d3d c54a 963e c409 c0bd d466 8c3e
00000110: 1ed5 393e 11d5 643e 9477 9dbd f3df 0bbe
00000120: 2b07 923b 3c8e 173e 3877 443b 3b80 303e
00000130: 11f4 9bbe 8c3d 4b3c e40b 10be 0937 14be
00000140: 3b0b b6be 8d3e 153d a1f9 94be 1e35 e33d
00000150: c7ec 87be 1829 663e 8629 e0bc 8cda 773e
00000160: 7487 ddbe ad4c b83d 6a98 d8be 64f3 ccbe
00000170: ab17 5abd 8f1b 803e 46ac 4c3e cdbb e33c
00000180: 2702 7abd 8bf3 3a3e b7e9 573d 67d9 6f3e
00000190: ae4b ad3e ddb0 0ebe 7234 ea3d 1e53 b13e
000001a0: 7bab a9bd 9fa2 4a3e ef13 28be ab70 83be
000001b0: 9798 143e 684b 2ebe 789f 3abd 7fcf 30be
000001c0: f420 0d3f c5c8 3a3e 2ec5 e5bc 91b2 383d
000001d0: 325a de3d f994 283d 9de7 8abd 8c6f d3bc
000001e0: 6853 cebd d13b e63e f923 0fbe 4160 acbd
000001f0: c073 39be bd6b 05be 73d4 11be 80f6 8f3d
00000200: bd90 5f3e f1ab f7bd 67ac 143e bf8c 25bd
00000210: 80b4 35be 0ade eb3d 451c 41be 48de 263d
00000220: 0aa5 a03e ae82 b4bd 8084 35bd 4eb6 c43d
00000230: 24ae 14be ca4e 3d3e 32ad 88be a036 b1bd
00000240: d976 e1be 2da9 0d3f e59b 2a3e eb58 43bd
00000250: c828 5c3e a9e8 70bc 40ba a63e 7057 713e
00000260: f1c3 843d 008f 04be 3910 93be 6404 54be
00000270: b3ca b03c 5b42 ad3d bcc7 80be 58b5 263d
00000280: 579b 2fbe e917 e8bd fdc5 f83b 2cd3 abbd
00000290: ce9a e93d 049e e1bd c52e aa3e 0c8a 6ebd
000002a0: c673 34be c62a 423e d887 2bbe 0ada 4c3e
000002b0: 6ae8 e7bd 6de5 973e abfc c5be 1941 5f3e
000002c0: ba0d 3d3e eb45 c9be 1ffd 003f e2ca 243e
000002d0: ee51 583e 124b 7bbe 43aa 163e 2a39 373e
000002e0: f8dd cfbe 8198 f6bc 5b0d b63e 496f 083f
000002f0: 234f dabe cf97 bc3e 4952 293d f0f9 39be
00000300: ff66 09be 0af2 e73d 96f8 553d 4372 4f3e
00000310: 1475 f5bd 4a3a 033e 56d7 95be b753 643e
00000320: 8a48 b0bc b5fc 013e ddd3 c73d 0ab9 64be
00000330: c3c5 073e 8537 283e f416 86bd acbe 5a3c
00000340: 4090 f73d e274 a83d bef5 503e 650d 03be
00000350: da96 00be f7a1 283e c397 a5bd 5d61 cdbe
00000360: f52f 743e 9792 38bc 9e15 21be e34a 853e
00000370: 0ed1 5bbe 9cfe e73e 60a8 c5be 0895 833d
00000380: ee4b ab3d 463b c83d acb6 5abc e1a7 b03d
00000390: afe3 513e e1ef 7abd c608 033e 386d ecbd
000003a0: 007b 88bd b046 9cbd 8857 cdbe 8b0e 153d
000003b0: 33ba 70be 3183 fe3d 2515 29be b8b2 f03d
000003c0: 6223 85bd b2d1 5cbe e536 643c 603c 91bc
000003d0: 73c7 abbe cd20 833e 5165 82be e892 96be
000003e0: 6ab5 463e 1a3f bdbe efb8 0e3e 3fd8 bebd
000003f0: b73f 40be 76c5 bcbe e231 913e 5c45 9d3e

linear1.bias f4 [256]
-0.11262954 0.40060988 -0.10832007 0.08987791 0.07147697 0.25068772 -0.12496683 -0.1870579
0.0391765 -0.050974805 0.14120468 -0.04570174 -0.32288745 -0.066779666 -0.22319098 -0.04217575
0.16727412 -0.03310933 0.14666517 0.11711554 0.06460866 0.014520946 -0.008102092 0.044511948
-0.120705426 -0.21451245 0.13248572 0.16880943 -0.14189214 0.027317792 0.27706817 0.016516991
0.09814817 -0.12691124 -0.12234937 0.07478638 -0.05738157 -0.041972637 0.23047891 -0.10549321
-0.042256206 0.22061683 -0.24118903 -0.13677801 -0.20419173 0.13665129 -0.2014856 -0.1097316
0.049873922 0.14605708 0.13588174 0.27558494 -0.092020504 0.28904858 0.11597958 -0.095897086
0.20038293 0.10055284 -0.11759358 0.09541732 0.20500258 -0.13777107 0.12963116 -0.22696723
0.21516263 -0.26367736 -0.10164123 0.05308124 -0.0044442145 -0.0328836 -0.12248796 0.031641744
0.3339461 -0.07891259 -0.06387584 0.25196618 0.2623388 -0.027063238 0.25498056 0.19160911
-0.2883034 -0.15656608 0.06636131 -0.32921037 0.064405784 -0.12600245 -0.14803635 -0.18235192
-0.10375205 0.0068312865 0.21138875 -0.11796479 0.06279939 0.23855942 -0.1494736 0.31011522
-0.17304333 -0.0262645 -0.2664104 0.13600557 -0.06652984 0.2531892 -0.2142263 0.07787795
-0.09668281 -0.14362247 0.018143917 -0.047504734 -0.12375717 -0.073012225 0.2202575 0.03263155
0.16716748 -0.29451492 0.006589764 0.09026218 0.1651204 -0.08641435 0.16213667 -0.11776141
0.021289155 -0.18171863 -0.09875999 -0.15938306 -0.21261452 -0.15801492 -0.19666712 -0.07336913
-0.07633426 0.014538744 -0.123181835 -0.22128877 -0.116660014 -0.071263134 -0.11245735 -0.08604779
0.19913091 -0.16995697 -0.057549495 0.28812805 0.02351444 -0.079318576 0.06434397 0.3390741
-0.013860889 0.00717652 0.33019164 0.269843 -0.14218168 -0.2660371 -0.04892719 0.06967459
-0.08093049 -0.3352924 -0.058032177 0.02765939 -0.05585508 -0.03972949 -0.059170403 0.076264955
0.07053669 -0.09628065 0.33295837 0.23349732 -0.27242318 0.16255453 0.087074704 0.35895342
0.2676342 0.15083136 -0.08391573 0.26173028 0.1582075 -0.17147066 0.37690103 -0.27528062
-0.16802976 -0.101273134 -0.10915615 -0.12770386 -0.1110707 0.042563453 0.08714098 0.15149118
-0.32058963 0.22479694 -0.047350306 -0.26367176 -0.21451227 -0.36838907 0.17498845 0.14316323
-0.01709271 -0.2898984 -0.0039775115 0.03826986 0.32213834 0.21130712 -0.24847189 -0.08880069
-0.15454228 -0.17810103 -0.2102336 -0.12865186 -0.1985366 0.10986716 0.13376763 -0.24449018
0.20608123 -0.034912027 0.25405583 0.14916226 -0.15885194 -0.15937687 -0.23297004 -0.14039983
-0.29822633 -0.055372864 0.06082594 -0.06650006 -0.21113054 -0.16492549 0.022984233 -0.05676108
0.11915691 0.091017984 0.3028048 0.09305763 -0.16513628 -0.20433822 -0.2990254 0.11519064
0.16712019 0.014234978 -0.1528215 -0.19926682 0.22913837 0.16815598 -0.2660764 0.17967239
0.0036991718 -0.16356167 -0.04808632 0.031233875 -0.17611484 -0.3237009 0.10406385 0.098350205
-0.23659463 -0.2751585 0.17591065 0.29377884 0.120641045 0.28451335 -0.19333813 -0.33192968
00000000: 51aa e6bd bd1c cd3e ead6 ddbd e911 b83d
00000010: 8562 923d 245a 803e 9cee ffbd 1b8c 3fbe
00000020: 8a77 203d f5ca 50bd f697 103e bf31 3bbd
00000030: 8151 a5be c7c3 88bd 2d8c 64be 7bc0 2cbd
00000040: e849 2b3e a69d 07bd 652f 163e 46da ef3d
00000050: 8c51 843d 43e9 6d3c a3be 04bc 2952 363d
00000060: 6834 f7bd 27a9 5bbe 56aa 073e 61dc 2c3e
00000070: 2c4c 11be 90c9 df3c e1db 8d3e a44e 873c
00000080: e801 c93d 05f5 01be 4e92 fabd 9a29 993d
00000090: f008 6bbd 80eb 2bbd aa02 6c3e d30c d8bd
000000a0: d814 2dbd 61e9 613e 42fa 76be 890f 0cbe
000000b0: a317 51be 51ee 0b3e 3e52 4ebe f6ba e0bd
000000c0: 9948 4c3d fd8f 153e 9524 0b3e 7819 8d3e
000000d0: 3f75 bcbd 2dfe 933e b486 ed3d b165 c4bd
000000e0: 2f31 4d3e a6ee cd3d e7d4 f0bd 286a c33d
000000f0: 32ec 513e dc13 0dbe 08be 043e 196a 68be
00000100: 9853 5c3e b800 87be 4729 d0bd b76b 593d
00000110: c6a0 91bb f4b0 06bd f8da fabd c69a 013d
00000120: fcfa aa3e ed9c a1bd 56d1 82bd b601 813e
00000130: 4551 863e b9b3 ddbc d08c 823e 2e35 443e
00000140: 819c 93be dc52 20be 70e8 873d 438e a8be
00000150: 2ee7 833d c906 01be d796 17be 76ba 3abe
00000160: f47b d4bd fcd8 df3b 4b76 583e 8697 f1bd
00000170: f79c 803d ec48 743e 9b0f 19be 6cc7 9e3e
00000180: 4532 31be a628 d7bc f266 88be 0b45 0b3e
00000190: cc40 88bd 04a2 813e 245e 5bbe 7a7e 9f3d
000001a0: a301 c6bd c511 13be 8da2 943c 5394 42bd
000001b0: 6674 fdbd 6f87 95bd 2f8b 613e a9a8 053d
000001c0: f42d 2b3e a9ca 96be f2ee d73b 61db b83d
000001d0: 5215 293e 02fa b0bd 2807 263e e52c f1bd
000001e0: 9866 ae3c 7314 3abe ad42 cabd 5035 23be
000001f0: 9fb7 59be aace 21be 1b63 49be 8e42 96bd
00000200: 2355 9cbd ea33 6e3c c246 fcbd 8699 62be
00000210: 72eb eebd 68f2 91bd 0a50 e6bd d339 b0bd
00000220: f9e8 4b3e 3309 2ebe 05b9 6bbd 8585 933e
00000230: 5ba1 c03c c771 a2bd c5c6 833d 1f9b ad3e
00000240: c818 63bc 0329 eb3b e10e a93e dd28 8a3e
00000250: 1398 11be 0436 88be e167 48bd 8db1 8e3d
00000260: e2be a5bd 72ab abbe 26b3 6dbd f295 e23c
00000270: 4cc8 64bd 64bb 22bd aa5c 72bd cd30 9c3d
00000280: 8a75 903d ca2e c5bd 8579 aa3e ec19 6f3e
00000290: 0d7b 8bbe b274 263e 3954 b23d bec8 b73e
000002a0: 5a07 893e 8973 1a3e 03dc abbd 8301 863e
000002b0: 2601 223e 0196 2fbe 2cf9 c03e 95f1 8cbe
000002c0: fe0f 2cbe 4a68 cfbd 428d dfbd cdc4 02be
000002d0: 0979 e3bd 0457 2e3d f876 b23d 8120 1b3e
000002e0: 5324 a4be 2b31 663e 65f2 41bd fcff 86be
000002f0: 1ba9 5bbe 7e9d bcbe 2c30 333e 6299 123e
00000300: 0306 8cbc 906d 94be c955 82bb dbc0 1c3d
00000310: 51ef a43e e560 583e 6a6f 7ebe 23dd b5bd
00000320: 5540 1ebe 1e60 36be 7a47 57be 50bd 03be
00000330: 2e4d 4bbe 0902 e13d 62fa 083e a25b 7abe
00000340: f506 533e eaff 0ebd 9b13 823e febd 183e
00000350: 15aa 22be b133 23be b38f 6ebe f9c4 0fbe
00000360: 1fb1 98be a8ce 62bd 9f24 793d 2f31 88bd
00000370: 9b32 58be 3ae2 28be 6e49 bc3c 4e7e 68bd
00000380: 8a08 f43d a367 ba3d 3b09 9b3e 0095 be3d
00000390: 7c19 29be 0a3e 51be db19 99be 12e9 eb3d
000003a0: 8e21 2b3e d339 693c 3d7d 1cbe 9a0c 4cbe
000003b0: 40a3 6a3e 1531 2c3e 2a3b 88be 0afc 373e
000003c0: ce6d 723b b67c 27be 29f6 44bd 2fde ff3c
000003d0: 7357 34be 20bc a5be 6e1f d53d d56b c93d
000003e0: dd45 72be 93e1 8cbe ec21 343e 2e6a 963e
000003f0: a712 f73d bcab 913e 6efa 45be b0f2 a9be

linear2.weight f4 [3, 256]
-0.017752916 0.18286423 -0.20473333 0.022432316 -0.2553657 -0.07771604 0.07045178 0.038431477
0.042978622 -0.17702225 0.12885925 -0.079333864 0.13818057 0.04870065 -0.022315642 0.17641331
-0.12602414 -0.05730598 0.019488228 -0.05635617 0.04182651 0.024140283 -0.12973332 0.14249298
-0.24925661 -0.022034293 -0.12032324 0.09718764 0.21867782 0.15921581 -0.092488885 0.0064377007
0.13529822 -0.009197557 0.108007476 0.1292526 0.0025584784 -0.08658403 0.12891427 -0.12018937
-0.079858996 0.09465072 0.04094814 0.16401884 -0.27101207 -0.10950272 -0.008655757 0.26797575
-0.082456574 0.0692989 0.049250875 0.055921804 -0.17342651 0.07758929 -0.07661341 -0.16053739
0.09811789 -0.10343102 -0.14764273 0.017296059 0.06065843 -0.016843515 -0.05813607 -0.12172074
0.1436794 0.011947384 0.04428991 0.14258017 -0.13487782 -0.39206067 0.048717506 -0.1951259
0.04334772 -0.21161309 -0.025453188 -0.037550062 -0.120585695 -0.07331067 -0.08234819 -0.06064962
0.066684574 -0.15175891 -0.045891438 0.02417131 0.019558351 -0.15845692 -0.2823274 -0.052144907
-0.29722354 0.18219216 0.16779596 0.054176014 0.0845311 0.016278967 -0.27000943 0.097210065
-0.12764287 -0.23690486 -0.120036215 -0.053140797 -0.01420607 -0.06071827 -0.008502431 -0.0334113
-0.02196808 -0.20496504 -0.0058432785 -0.15596478 -0.08560278 -0.278085 0.100941174 0.17941037
-0.13389926 -0.049754206 -0.10159813 -0.045369357 0.14027295 -0.038741022 -0.08778493 0.041606683
-0.09127435 -0.18305191 -0.20279922 -0.2855725 -0.06218919 0.10776436 -0.058444224 0.03980004
-0.4913527 0.18959905 -0.040059946 -0.31852037 -0.07946475 -0.032064315 -0.0032675588 0.049686883
-0.28750947 -0.15365003 -0.087151475 -0.026192185 0.17075607 0.2669327 0.14082527 0.18362212
-0.014892405 0.12546313 -0.0150242355 0.0077481857 -0.040297754 -0.15767679 -0.04714448 -0.10671158
-0.23634411 -0.010035855 -0.14173353 -0.15309124 0.10586605 -0.08656149 -0.015733423 0.053951047
-0.039147377 -0.12464 0.12728481 0.1279451 -0.04584091 -0.020037241 0.19317167 0.1714326
0.0004898731 -0.07221514 -0.100726485 0.185176 -0.11478086 -0.21527487 0.20253709 -0.018635605
-0.05824429 0.12477505 -0.15686613 0.04450938 0.2651213 -0.13044769 0.0053892313 0.15782933
-0.020887151 -0.02452452 -0.065495946 0.0039734514 0.1830007 -8.9452544e-05 -0.1471147 0.031388618
-0.11710525 0.059365906 -0.09209365 -0.24767768 0.18381108 -0.05860435 0.022603547 0.17587894
0.23874885 -0.10215538 -0.012190835 -0.103332356 -0.005934676 -0.14915277 -0.10423425 0.050362695
-0.10429313 -0.11716928 0.17631344 -0.052531574 -0.03454023 -0.1998094 -0.15338124 -0.0029823557
-0.024405457 -0.0018251655 0.16795284 -0.006929775 -0.19802488 -0.19861448 -0.03441988 -0.18114918
0.04118498 -0.07590693 0.0065435693 0.10040128 -0.059964806 -0.05129619 -0.092803515 0.12843433
-0.26121065 -0.050977148 0.1460075 -0.34792107 0.097278014 -0.09829885 -0.19153072 -0.088336185
0.20466202 -0.12127527 -0.04234585 -0.23978516 -0.23590855 0.012047298 -0.092483096 -0.18921359
-0.055797786 -0.010159078 0.16662318 0.037806373 0.07028438 0.25614128 -0.07228942 0.070909
00000000: 906e 91bc c340 3b3e 9da5 51be fac3 b73c
00000010: 4bbf 82be 9629 9fbd 0649 903d 536a 1d3d
00000020: 5a0a 303d 5245 35be aef3 033e cb79 a2bd
00000030: 357f 0d3e 557a 473d 4bcf b6bc b1a5 343e
00000040: 790c 01be adb9 6abd c7a5 9f3c bad5 66bd
00000050: 4652 2b3d d8c1 c53c d0d8 04be aee9 113e
00000060: 203d 7fbe 4381 b4bc 086c f6bd 500a c73d
00000070: 14ed 5f3e 7809 233e d06a bdbd 59f3 d23b
00000080: 9e8b 0a3e 5ab1 16bc 0633 dd3d cb5a 043e
00000090: 25ac 273b f852 b1bd 1a02 043e d825 f6bd
000000a0: 1d8d a3bd 3dd8 c13d 3db9 273d 8ef4 273e
000000b0: 18c2 8abe f642 e0bd e0d0 0dbc 1e34 893e
000000c0: fede a8bd 95ec 8d3d 49bb 493d 430e 653d
000000d0: b896 31be 22e7 9e3d 7ee7 9cbd ea63 24be
000000e0: 08f2 c83d a5d3 d3bd a82f 17be 77b0 8d3c
000000f0: f974 783d 69fb 89bc 1620 6ebd b948 f9bd
00000100: b120 133e f6be 433c 5669 353d 8900 123e
00000110: 691d 0abe 2dbc c8be 028c 473d 15cf 47be
00000120: 618d 313d 1ab1 58be 3483 d0bc 18ce 19bd
00000130: a2f5 f6bd e823 96bd 2ba6 a8bd bc6b 78bd
00000140: ec91 883d b066 1bbe a9f8 3bbd e902 c63c
00000150: d638 a03c 8842 22be 388d 90be e695 55bd
00000160: af2d 98be 9590 3a3e b4d2 2b3e abe7 5d3d
00000170: a41e ad3d 785b 853c ad3e 8abe 1216 c73d
00000180: d0b4 02be 3097 72be 8cd5 f5bd 2aaa 59bd
00000190: 94c0 68bc b8b3 78bd c84d 0bbc 4ada 08bd
000001a0: 67f6 b3bc 5be2 51be f978 bfbb 3bb5 1fbe
000001b0: 8350 afbd 2861 8ebe 3fba ce3d 5ab7 373e
000001c0: e31c 09be 11cb 4bbd ae12 d0bd 38d5 39bd
000001d0: b6a3 0f3e e8ae 1ebd 96c8 b3bd c56b 2a3d
000001e0: 0cee babd f671 3bbe 99aa 4fbe 8f36 92be
000001f0: 18ba 7ebd 90b3 dc3d 3663 6fbd 5e05 233d
00000200: 9592 fbbe 4126 423e e615 24bd 1a15 a3be
00000210: 6abe a2bd df55 03bd 8a24 56bb 7984 4b3d
00000220: 7134 93be 6f56 1dbe 797c b2bd fe90 d6bc
00000230: aeda 2e3e 67ab 883e 8034 103e 7007 3c3e
00000240: 46ff 73bc 6879 003e 3628 76bc 7ee4 fd3b
00000250: 420f 25bd 0676 21be 921a 41bd 9a8b dabd
00000260: 3104 72be 6d6d 24bc 9822 11be f3c3 1cbe
00000270: 4dd0 d83d 2747 b1bd 61e3 80bc c6fb 5c3d
00000280: 0059 20bd 4243 ffbd f356 023e 0a04 033e
00000290: aec3 3bbd 2425 a4bc cbce 453e 078c 2f3e
000002a0: d46a 003a 88e5 93bd b049 cebd c79e 3d3e
000002b0: 3a12 ebbd 0471 5cbe e265 4f3e b2a9 98bc
000002c0: 9191 6ebd 108a ff3d 84a1 20be 784f 363d
000002d0: fbbd 873e 1494 05be 2698 b03b 039e 213e
000002e0: 881b abbc a5e7 c8bc bd22 86bd ba33 823b
000002f0: 8964 3b3e 7898 bbb8 3ca5 16be 5a91 003d
00000300: e1d4 efbd aa29 733d 989b bcbd 389f 7dbe
00000310: f938 3c3e 1d0b 70bd 132b b93c 9c19 343e
00000320: 947a 743e d736 d1bd 11bc 47bc ea9f d3bd
00000330: ac77 c2bb 81bb 18be c478 d5bd 1d49 4e3d
00000340: a397 d5bd 73f6 efbd 838b 343e 592b 57bd
00000350: 0e7a 0dbd d69a 4cbe f90f 1dbe a073 43bb
00000360: f4ed c7bc 643a efba d4fb 2b3e 2a13 e3bb
00000370: 09c7 4abe 9861 4bbe dcfb 0cbd 2c7f 39be
00000380: 95b1 283d 1875 9bbd 706b d63b 309f cd3d
00000390: a89d 75bd f41b 52bd c50f bebd 4a84 033e
000003a0: 67bd 85be 6acd 50bd fd82 153e b622 b2be
000003b0: b239 c73d e850 c9bd a120 44be 9ae9 b4bd
000003c0: ec92 513e 2b5f f8bd d872 2dbd 3e8a 75be
000003d0: 0392 71be 0862 453c c767 bdbd 35c1 41be
000003e0: 388c 64bd 4372 26bc 449f 2a3e dbda 1a3d
000003f0: 42f1 8f3d f324 833e 7a0c 94bd bd38 913d

linear2.bias f4 [3]
-0.0074354904 -0.08729227 -0.1506023
00000000: 6aa5 f3bb 4ac6 b2bd 7d37 1abe
